__________________________________________________________________________________________________
Layer (type)                    Output Shape         Param #     Connected to                     
==================================================================================================
input_1 (InputLayer)            (None, 70000, 256)   0                                            
__________________________________________________________________________________________________
conv1d_1 (Conv1D)               (None, 70000, 64)    32832       input_1[0][0]                    
__________________________________________________________________________________________________
conv1d_2 (Conv1D)               (None, 70000, 128)   16512       conv1d_1[0][0]                   
__________________________________________________________________________________________________
conv1d_3 (Conv1D)               (None, 70000, 128)   16512       conv1d_1[0][0]                   
__________________________________________________________________________________________________
merge_1 (Merge)                 (None, 70000, 128)   0           conv1d_2[0][0]                   
                                                                 conv1d_3[0][0]                   
__________________________________________________________________________________________________
conv1d_4 (Conv1D)               (None, 70000, 64)    8256        merge_1[0][0]                    
__________________________________________________________________________________________________
merge_2 (Merge)                 (None, 70000, 64)    0           conv1d_1[0][0]                   
                                                                 conv1d_4[0][0]                   
__________________________________________________________________________________________________
conv1d_6 (Conv1D)               (None, 70000, 128)   16512       merge_2[0][0]                    
__________________________________________________________________________________________________
conv1d_7 (Conv1D)               (None, 70000, 128)   16512       merge_2[0][0]                    
__________________________________________________________________________________________________
merge_3 (Merge)                 (None, 70000, 128)   0           conv1d_6[0][0]                   
                                                                 conv1d_7[0][0]                   
__________________________________________________________________________________________________
conv1d_8 (Conv1D)               (None, 70000, 64)    8256        merge_3[0][0]                    
__________________________________________________________________________________________________
merge_4 (Merge)                 (None, 70000, 64)    0           merge_2[0][0]                    
                                                                 conv1d_8[0][0]                   
__________________________________________________________________________________________________
conv1d_10 (Conv1D)              (None, 70000, 128)   16512       merge_4[0][0]                    
__________________________________________________________________________________________________
conv1d_11 (Conv1D)              (None, 70000, 128)   16512       merge_4[0][0]                    
__________________________________________________________________________________________________
merge_5 (Merge)                 (None, 70000, 128)   0           conv1d_10[0][0]                  
                                                                 conv1d_11[0][0]                  
__________________________________________________________________________________________________
conv1d_12 (Conv1D)              (None, 70000, 64)    8256        merge_5[0][0]                    
__________________________________________________________________________________________________
merge_6 (Merge)                 (None, 70000, 64)    0           merge_4[0][0]                    
                                                                 conv1d_12[0][0]                  
__________________________________________________________________________________________________
conv1d_14 (Conv1D)              (None, 70000, 128)   16512       merge_6[0][0]                    
__________________________________________________________________________________________________
conv1d_15 (Conv1D)              (None, 70000, 128)   16512       merge_6[0][0]                    
__________________________________________________________________________________________________
merge_7 (Merge)                 (None, 70000, 128)   0           conv1d_14[0][0]                  
                                                                 conv1d_15[0][0]                  
__________________________________________________________________________________________________
conv1d_16 (Conv1D)              (None, 70000, 64)    8256        merge_7[0][0]                    
__________________________________________________________________________________________________
merge_8 (Merge)                 (None, 70000, 64)    0           merge_6[0][0]                    
                                                                 conv1d_16[0][0]                  
__________________________________________________________________________________________________
conv1d_18 (Conv1D)              (None, 70000, 128)   16512       merge_8[0][0]                    
__________________________________________________________________________________________________
conv1d_19 (Conv1D)              (None, 70000, 128)   16512       merge_8[0][0]                    
__________________________________________________________________________________________________
merge_9 (Merge)                 (None, 70000, 128)   0           conv1d_18[0][0]                  
                                                                 conv1d_19[0][0]                  
__________________________________________________________________________________________________
conv1d_20 (Conv1D)              (None, 70000, 64)    8256        merge_9[0][0]                    
__________________________________________________________________________________________________
merge_10 (Merge)                (None, 70000, 64)    0           merge_8[0][0]                    
                                                                 conv1d_20[0][0]                  
__________________________________________________________________________________________________
conv1d_22 (Conv1D)              (None, 70000, 128)   16512       merge_10[0][0]                   
__________________________________________________________________________________________________
conv1d_23 (Conv1D)              (None, 70000, 128)   16512       merge_10[0][0]                   
__________________________________________________________________________________________________
merge_11 (Merge)                (None, 70000, 128)   0           conv1d_22[0][0]                  
                                                                 conv1d_23[0][0]                  
__________________________________________________________________________________________________
conv1d_24 (Conv1D)              (None, 70000, 64)    8256        merge_11[0][0]                   
__________________________________________________________________________________________________
merge_12 (Merge)                (None, 70000, 64)    0           merge_10[0][0]                   
                                                                 conv1d_24[0][0]                  
__________________________________________________________________________________________________
conv1d_26 (Conv1D)              (None, 70000, 128)   16512       merge_12[0][0]                   
__________________________________________________________________________________________________
conv1d_27 (Conv1D)              (None, 70000, 128)   16512       merge_12[0][0]                   
__________________________________________________________________________________________________
merge_13 (Merge)                (None, 70000, 128)   0           conv1d_26[0][0]                  
                                                                 conv1d_27[0][0]                  
__________________________________________________________________________________________________
conv1d_28 (Conv1D)              (None, 70000, 64)    8256        merge_13[0][0]                   
__________________________________________________________________________________________________
merge_14 (Merge)                (None, 70000, 64)    0           merge_12[0][0]                   
                                                                 conv1d_28[0][0]                  
__________________________________________________________________________________________________
conv1d_30 (Conv1D)              (None, 70000, 128)   16512       merge_14[0][0]                   
__________________________________________________________________________________________________
conv1d_31 (Conv1D)              (None, 70000, 128)   16512       merge_14[0][0]                   
__________________________________________________________________________________________________
merge_15 (Merge)                (None, 70000, 128)   0           conv1d_30[0][0]                  
                                                                 conv1d_31[0][0]                  
__________________________________________________________________________________________________
conv1d_32 (Conv1D)              (None, 70000, 64)    8256        merge_15[0][0]                   
__________________________________________________________________________________________________
merge_16 (Merge)                (None, 70000, 64)    0           merge_14[0][0]                   
                                                                 conv1d_32[0][0]                  
__________________________________________________________________________________________________
conv1d_34 (Conv1D)              (None, 70000, 128)   16512       merge_16[0][0]                   
__________________________________________________________________________________________________
conv1d_35 (Conv1D)              (None, 70000, 128)   16512       merge_16[0][0]                   
__________________________________________________________________________________________________
merge_17 (Merge)                (None, 70000, 128)   0           conv1d_34[0][0]                  
                                                                 conv1d_35[0][0]                  
__________________________________________________________________________________________________
conv1d_36 (Conv1D)              (None, 70000, 64)    8256        merge_17[0][0]                   
__________________________________________________________________________________________________
merge_18 (Merge)                (None, 70000, 64)    0           merge_16[0][0]                   
                                                                 conv1d_36[0][0]                  
__________________________________________________________________________________________________
conv1d_38 (Conv1D)              (None, 70000, 128)   16512       merge_18[0][0]                   
__________________________________________________________________________________________________
conv1d_39 (Conv1D)              (None, 70000, 128)   16512       merge_18[0][0]                   
__________________________________________________________________________________________________
merge_19 (Merge)                (None, 70000, 128)   0           conv1d_38[0][0]                  
                                                                 conv1d_39[0][0]                  
__________________________________________________________________________________________________
conv1d_40 (Conv1D)              (None, 70000, 64)    8256        merge_19[0][0]                   
__________________________________________________________________________________________________
merge_20 (Merge)                (None, 70000, 64)    0           merge_18[0][0]                   
                                                                 conv1d_40[0][0]                  
__________________________________________________________________________________________________
conv1d_42 (Conv1D)              (None, 70000, 128)   16512       merge_20[0][0]                   
__________________________________________________________________________________________________
conv1d_43 (Conv1D)              (None, 70000, 128)   16512       merge_20[0][0]                   
__________________________________________________________________________________________________
merge_21 (Merge)                (None, 70000, 128)   0           conv1d_42[0][0]                  
                                                                 conv1d_43[0][0]                  
__________________________________________________________________________________________________
conv1d_44 (Conv1D)              (None, 70000, 64)    8256        merge_21[0][0]                   
__________________________________________________________________________________________________
merge_22 (Merge)                (None, 70000, 64)    0           merge_20[0][0]                   
                                                                 conv1d_44[0][0]                  
__________________________________________________________________________________________________
conv1d_46 (Conv1D)              (None, 70000, 128)   16512       merge_22[0][0]                   
__________________________________________________________________________________________________
conv1d_47 (Conv1D)              (None, 70000, 128)   16512       merge_22[0][0]                   
__________________________________________________________________________________________________
merge_23 (Merge)                (None, 70000, 128)   0           conv1d_46[0][0]                  
                                                                 conv1d_47[0][0]                  
__________________________________________________________________________________________________
conv1d_48 (Conv1D)              (None, 70000, 64)    8256        merge_23[0][0]                   
__________________________________________________________________________________________________
merge_24 (Merge)                (None, 70000, 64)    0           merge_22[0][0]                   
                                                                 conv1d_48[0][0]                  
__________________________________________________________________________________________________
conv1d_50 (Conv1D)              (None, 70000, 128)   16512       merge_24[0][0]                   
__________________________________________________________________________________________________
conv1d_51 (Conv1D)              (None, 70000, 128)   16512       merge_24[0][0]                   
__________________________________________________________________________________________________
merge_25 (Merge)                (None, 70000, 128)   0           conv1d_50[0][0]                  
                                                                 conv1d_51[0][0]                  
__________________________________________________________________________________________________
conv1d_52 (Conv1D)              (None, 70000, 64)    8256        merge_25[0][0]                   
__________________________________________________________________________________________________
merge_26 (Merge)                (None, 70000, 64)    0           merge_24[0][0]                   
                                                                 conv1d_52[0][0]                  
__________________________________________________________________________________________________
conv1d_54 (Conv1D)              (None, 70000, 128)   16512       merge_26[0][0]                   
__________________________________________________________________________________________________
conv1d_55 (Conv1D)              (None, 70000, 128)   16512       merge_26[0][0]                   
__________________________________________________________________________________________________
merge_27 (Merge)                (None, 70000, 128)   0           conv1d_54[0][0]                  
                                                                 conv1d_55[0][0]                  
__________________________________________________________________________________________________
conv1d_56 (Conv1D)              (None, 70000, 64)    8256        merge_27[0][0]                   
__________________________________________________________________________________________________
merge_28 (Merge)                (None, 70000, 64)    0           merge_26[0][0]                   
                                                                 conv1d_56[0][0]                  
__________________________________________________________________________________________________
conv1d_58 (Conv1D)              (None, 70000, 128)   16512       merge_28[0][0]                   
__________________________________________________________________________________________________
conv1d_59 (Conv1D)              (None, 70000, 128)   16512       merge_28[0][0]                   
__________________________________________________________________________________________________
merge_29 (Merge)                (None, 70000, 128)   0           conv1d_58[0][0]                  
                                                                 conv1d_59[0][0]                  
__________________________________________________________________________________________________
conv1d_60 (Conv1D)              (None, 70000, 64)    8256        merge_29[0][0]                   
__________________________________________________________________________________________________
merge_30 (Merge)                (None, 70000, 64)    0           merge_28[0][0]                   
                                                                 conv1d_60[0][0]                  
__________________________________________________________________________________________________
conv1d_62 (Conv1D)              (None, 70000, 128)   16512       merge_30[0][0]                   
__________________________________________________________________________________________________
conv1d_63 (Conv1D)              (None, 70000, 128)   16512       merge_30[0][0]                   
__________________________________________________________________________________________________
merge_31 (Merge)                (None, 70000, 128)   0           conv1d_62[0][0]                  
                                                                 conv1d_63[0][0]                  
__________________________________________________________________________________________________
conv1d_64 (Conv1D)              (None, 70000, 64)    8256        merge_31[0][0]                   
__________________________________________________________________________________________________
merge_32 (Merge)                (None, 70000, 64)    0           merge_30[0][0]                   
                                                                 conv1d_64[0][0]                  
__________________________________________________________________________________________________
conv1d_66 (Conv1D)              (None, 70000, 128)   16512       merge_32[0][0]                   
__________________________________________________________________________________________________
conv1d_67 (Conv1D)              (None, 70000, 128)   16512       merge_32[0][0]                   
__________________________________________________________________________________________________
merge_33 (Merge)                (None, 70000, 128)   0           conv1d_66[0][0]                  
                                                                 conv1d_67[0][0]                  
__________________________________________________________________________________________________
conv1d_68 (Conv1D)              (None, 70000, 64)    8256        merge_33[0][0]                   
__________________________________________________________________________________________________
merge_34 (Merge)                (None, 70000, 64)    0           merge_32[0][0]                   
                                                                 conv1d_68[0][0]                  
__________________________________________________________________________________________________
conv1d_70 (Conv1D)              (None, 70000, 128)   16512       merge_34[0][0]                   
__________________________________________________________________________________________________
conv1d_71 (Conv1D)              (None, 70000, 128)   16512       merge_34[0][0]                   
__________________________________________________________________________________________________
merge_35 (Merge)                (None, 70000, 128)   0           conv1d_70[0][0]                  
                                                                 conv1d_71[0][0]                  
__________________________________________________________________________________________________
conv1d_72 (Conv1D)              (None, 70000, 64)    8256        merge_35[0][0]                   
__________________________________________________________________________________________________
merge_36 (Merge)                (None, 70000, 64)    0           merge_34[0][0]                   
                                                                 conv1d_72[0][0]                  
__________________________________________________________________________________________________
conv1d_74 (Conv1D)              (None, 70000, 128)   16512       merge_36[0][0]                   
__________________________________________________________________________________________________
conv1d_75 (Conv1D)              (None, 70000, 128)   16512       merge_36[0][0]                   
__________________________________________________________________________________________________
merge_37 (Merge)                (None, 70000, 128)   0           conv1d_74[0][0]                  
                                                                 conv1d_75[0][0]                  
__________________________________________________________________________________________________
conv1d_76 (Conv1D)              (None, 70000, 64)    8256        merge_37[0][0]                   
__________________________________________________________________________________________________
merge_38 (Merge)                (None, 70000, 64)    0           merge_36[0][0]                   
                                                                 conv1d_76[0][0]                  
__________________________________________________________________________________________________
conv1d_78 (Conv1D)              (None, 70000, 128)   16512       merge_38[0][0]                   
__________________________________________________________________________________________________
conv1d_79 (Conv1D)              (None, 70000, 128)   16512       merge_38[0][0]                   
__________________________________________________________________________________________________
merge_39 (Merge)                (None, 70000, 128)   0           conv1d_78[0][0]                  
                                                                 conv1d_79[0][0]                  
__________________________________________________________________________________________________
conv1d_80 (Conv1D)              (None, 70000, 64)    8256        merge_39[0][0]                   
__________________________________________________________________________________________________
merge_40 (Merge)                (None, 70000, 64)    0           merge_38[0][0]                   
                                                                 conv1d_80[0][0]                  
__________________________________________________________________________________________________
conv1d_82 (Conv1D)              (None, 70000, 128)   16512       merge_40[0][0]                   
__________________________________________________________________________________________________
conv1d_83 (Conv1D)              (None, 70000, 128)   16512       merge_40[0][0]                   
__________________________________________________________________________________________________
merge_41 (Merge)                (None, 70000, 128)   0           conv1d_82[0][0]                  
                                                                 conv1d_83[0][0]                  
__________________________________________________________________________________________________
conv1d_84 (Conv1D)              (None, 70000, 64)    8256        merge_41[0][0]                   
__________________________________________________________________________________________________
merge_42 (Merge)                (None, 70000, 64)    0           merge_40[0][0]                   
                                                                 conv1d_84[0][0]                  
__________________________________________________________________________________________________
conv1d_86 (Conv1D)              (None, 70000, 128)   16512       merge_42[0][0]                   
__________________________________________________________________________________________________
conv1d_87 (Conv1D)              (None, 70000, 128)   16512       merge_42[0][0]                   
__________________________________________________________________________________________________
merge_43 (Merge)                (None, 70000, 128)   0           conv1d_86[0][0]                  
                                                                 conv1d_87[0][0]                  
__________________________________________________________________________________________________
conv1d_88 (Conv1D)              (None, 70000, 64)    8256        merge_43[0][0]                   
__________________________________________________________________________________________________
merge_44 (Merge)                (None, 70000, 64)    0           merge_42[0][0]                   
                                                                 conv1d_88[0][0]                  
__________________________________________________________________________________________________
conv1d_90 (Conv1D)              (None, 70000, 128)   16512       merge_44[0][0]                   
__________________________________________________________________________________________________
conv1d_91 (Conv1D)              (None, 70000, 128)   16512       merge_44[0][0]                   
__________________________________________________________________________________________________
merge_45 (Merge)                (None, 70000, 128)   0           conv1d_90[0][0]                  
                                                                 conv1d_91[0][0]                  
__________________________________________________________________________________________________
conv1d_92 (Conv1D)              (None, 70000, 64)    8256        merge_45[0][0]                   
__________________________________________________________________________________________________
merge_46 (Merge)                (None, 70000, 64)    0           merge_44[0][0]                   
                                                                 conv1d_92[0][0]                  
__________________________________________________________________________________________________
conv1d_94 (Conv1D)              (None, 70000, 128)   16512       merge_46[0][0]                   
__________________________________________________________________________________________________
conv1d_95 (Conv1D)              (None, 70000, 128)   16512       merge_46[0][0]                   
__________________________________________________________________________________________________
merge_47 (Merge)                (None, 70000, 128)   0           conv1d_94[0][0]                  
                                                                 conv1d_95[0][0]                  
__________________________________________________________________________________________________
conv1d_96 (Conv1D)              (None, 70000, 64)    8256        merge_47[0][0]                   
__________________________________________________________________________________________________
merge_48 (Merge)                (None, 70000, 64)    0           merge_46[0][0]                   
                                                                 conv1d_96[0][0]                  
__________________________________________________________________________________________________
conv1d_98 (Conv1D)              (None, 70000, 128)   16512       merge_48[0][0]                   
__________________________________________________________________________________________________
conv1d_99 (Conv1D)              (None, 70000, 128)   16512       merge_48[0][0]                   
__________________________________________________________________________________________________
merge_49 (Merge)                (None, 70000, 128)   0           conv1d_98[0][0]                  
                                                                 conv1d_99[0][0]                  
__________________________________________________________________________________________________
conv1d_100 (Conv1D)             (None, 70000, 64)    8256        merge_49[0][0]                   
__________________________________________________________________________________________________
merge_50 (Merge)                (None, 70000, 64)    0           merge_48[0][0]                   
                                                                 conv1d_100[0][0]                 
__________________________________________________________________________________________________
conv1d_102 (Conv1D)             (None, 70000, 128)   16512       merge_50[0][0]                   
__________________________________________________________________________________________________
conv1d_103 (Conv1D)             (None, 70000, 128)   16512       merge_50[0][0]                   
__________________________________________________________________________________________________
merge_51 (Merge)                (None, 70000, 128)   0           conv1d_102[0][0]                 
                                                                 conv1d_103[0][0]                 
__________________________________________________________________________________________________
conv1d_104 (Conv1D)             (None, 70000, 64)    8256        merge_51[0][0]                   
__________________________________________________________________________________________________
merge_52 (Merge)                (None, 70000, 64)    0           merge_50[0][0]                   
                                                                 conv1d_104[0][0]                 
__________________________________________________________________________________________________
conv1d_106 (Conv1D)             (None, 70000, 128)   16512       merge_52[0][0]                   
__________________________________________________________________________________________________
conv1d_107 (Conv1D)             (None, 70000, 128)   16512       merge_52[0][0]                   
__________________________________________________________________________________________________
merge_53 (Merge)                (None, 70000, 128)   0           conv1d_106[0][0]                 
                                                                 conv1d_107[0][0]                 
__________________________________________________________________________________________________
conv1d_108 (Conv1D)             (None, 70000, 64)    8256        merge_53[0][0]                   
__________________________________________________________________________________________________
merge_54 (Merge)                (None, 70000, 64)    0           merge_52[0][0]                   
                                                                 conv1d_108[0][0]                 
__________________________________________________________________________________________________
conv1d_110 (Conv1D)             (None, 70000, 128)   16512       merge_54[0][0]                   
__________________________________________________________________________________________________
conv1d_111 (Conv1D)             (None, 70000, 128)   16512       merge_54[0][0]                   
__________________________________________________________________________________________________
merge_55 (Merge)                (None, 70000, 128)   0           conv1d_110[0][0]                 
                                                                 conv1d_111[0][0]                 
__________________________________________________________________________________________________
conv1d_112 (Conv1D)             (None, 70000, 64)    8256        merge_55[0][0]                   
__________________________________________________________________________________________________
merge_56 (Merge)                (None, 70000, 64)    0           merge_54[0][0]                   
                                                                 conv1d_112[0][0]                 
__________________________________________________________________________________________________
conv1d_114 (Conv1D)             (None, 70000, 128)   16512       merge_56[0][0]                   
__________________________________________________________________________________________________
conv1d_115 (Conv1D)             (None, 70000, 128)   16512       merge_56[0][0]                   
__________________________________________________________________________________________________
merge_57 (Merge)                (None, 70000, 128)   0           conv1d_114[0][0]                 
                                                                 conv1d_115[0][0]                 
__________________________________________________________________________________________________
conv1d_116 (Conv1D)             (None, 70000, 64)    8256        merge_57[0][0]                   
__________________________________________________________________________________________________
merge_58 (Merge)                (None, 70000, 64)    0           merge_56[0][0]                   
                                                                 conv1d_116[0][0]                 
__________________________________________________________________________________________________
conv1d_118 (Conv1D)             (None, 70000, 128)   16512       merge_58[0][0]                   
__________________________________________________________________________________________________
conv1d_119 (Conv1D)             (None, 70000, 128)   16512       merge_58[0][0]                   
__________________________________________________________________________________________________
merge_59 (Merge)                (None, 70000, 128)   0           conv1d_118[0][0]                 
                                                                 conv1d_119[0][0]                 
__________________________________________________________________________________________________
conv1d_5 (Conv1D)               (None, 70000, 256)   33024       merge_1[0][0]                    
__________________________________________________________________________________________________
conv1d_9 (Conv1D)               (None, 70000, 256)   33024       merge_3[0][0]                    
__________________________________________________________________________________________________
conv1d_13 (Conv1D)              (None, 70000, 256)   33024       merge_5[0][0]                    
__________________________________________________________________________________________________
conv1d_17 (Conv1D)              (None, 70000, 256)   33024       merge_7[0][0]                    
__________________________________________________________________________________________________
conv1d_21 (Conv1D)              (None, 70000, 256)   33024       merge_9[0][0]                    
__________________________________________________________________________________________________
conv1d_25 (Conv1D)              (None, 70000, 256)   33024       merge_11[0][0]                   
__________________________________________________________________________________________________
conv1d_29 (Conv1D)              (None, 70000, 256)   33024       merge_13[0][0]                   
__________________________________________________________________________________________________
conv1d_33 (Conv1D)              (None, 70000, 256)   33024       merge_15[0][0]                   
__________________________________________________________________________________________________
conv1d_37 (Conv1D)              (None, 70000, 256)   33024       merge_17[0][0]                   
__________________________________________________________________________________________________
conv1d_41 (Conv1D)              (None, 70000, 256)   33024       merge_19[0][0]                   
__________________________________________________________________________________________________
conv1d_45 (Conv1D)              (None, 70000, 256)   33024       merge_21[0][0]                   
__________________________________________________________________________________________________
conv1d_49 (Conv1D)              (None, 70000, 256)   33024       merge_23[0][0]                   
__________________________________________________________________________________________________
conv1d_53 (Conv1D)              (None, 70000, 256)   33024       merge_25[0][0]                   
__________________________________________________________________________________________________
conv1d_57 (Conv1D)              (None, 70000, 256)   33024       merge_27[0][0]                   
__________________________________________________________________________________________________
conv1d_61 (Conv1D)              (None, 70000, 256)   33024       merge_29[0][0]                   
__________________________________________________________________________________________________
conv1d_65 (Conv1D)              (None, 70000, 256)   33024       merge_31[0][0]                   
__________________________________________________________________________________________________
conv1d_69 (Conv1D)              (None, 70000, 256)   33024       merge_33[0][0]                   
__________________________________________________________________________________________________
conv1d_73 (Conv1D)              (None, 70000, 256)   33024       merge_35[0][0]                   
__________________________________________________________________________________________________
conv1d_77 (Conv1D)              (None, 70000, 256)   33024       merge_37[0][0]                   
__________________________________________________________________________________________________
conv1d_81 (Conv1D)              (None, 70000, 256)   33024       merge_39[0][0]                   
__________________________________________________________________________________________________
conv1d_85 (Conv1D)              (None, 70000, 256)   33024       merge_41[0][0]                   
__________________________________________________________________________________________________
conv1d_89 (Conv1D)              (None, 70000, 256)   33024       merge_43[0][0]                   
__________________________________________________________________________________________________
conv1d_93 (Conv1D)              (None, 70000, 256)   33024       merge_45[0][0]                   
__________________________________________________________________________________________________
conv1d_97 (Conv1D)              (None, 70000, 256)   33024       merge_47[0][0]                   
__________________________________________________________________________________________________
conv1d_101 (Conv1D)             (None, 70000, 256)   33024       merge_49[0][0]                   
__________________________________________________________________________________________________
conv1d_105 (Conv1D)             (None, 70000, 256)   33024       merge_51[0][0]                   
__________________________________________________________________________________________________
conv1d_109 (Conv1D)             (None, 70000, 256)   33024       merge_53[0][0]                   2018-02-11 05:51:51.644637: I tensorflow/core/platform/cpu_feature_guard.cc:137] Your CPU supports instructions that this TensorFlow binary was not compiled to use: SSE4.1 SSE4.2 AVX AVX2 FMA
2018-02-11 05:51:51.792844: I tensorflow/stream_executor/cuda/cuda_gpu_executor.cc:892] successful NUMA node read from SysFS had negative value (-1), but there must be at least one NUMA node, so returning NUMA node zero
…
